DeepLearning/270nice.pt (torch_old, 513499 bytes, 99 tensors)

encoder1.enc1conv1.weight f4 [4, 3, 3, 3]
000000 39 e9 ab be c6 9e 07 bf e0 c0 c3 3e 16 41 3f bf
       -0.33576372 -0.52976644 0.3823309 -0.7470869
000010 73 bc 30 bf a3 d7 8a 3e 65 19 b1 3e 76 a3 3c 3e
       -0.6903755 0.27117643 0.34589687 0.1842173
000020 0c 31 34 3f 93 ea a0 be 9d 61 d5 be eb 2a e7 3d
       0.7038734 -0.31428966 -0.41676036 0.11287483
000030 26 a1 bf be a7 d1 0c bf 3f dc 88 bd ae f1 ae bd
       -0.37427634 -0.55007404 -0.066826336 -0.085421905
000040 a7 5f ee 3d f5 3b 7e 3c b2 ce 19 3e 92 37 cc 3d
       0.11639338 0.015517225 0.15020254 0.09971537
000050 85 62 28 3e 89 e9 84 bd 17 2d ef 3d 63 94 9b bd
       0.16443832 -0.06489856 0.11678522 -0.07596662
000060 8b 8b 8b 3e 24 88 cf 3e e3 33 5e 3e f2 78 91 be
       0.272549 0.40533555 0.2169948 -0.28412586
000070 a7 78 fb be de 40 ca be 2b c7 65 3d 6d 78 5b 3e
       -0.49115488 -0.39502615 0.056098145 0.21432658
000080 cc 36 a4 3d c6 88 94 3d 41 4b 52 3e 28 db 23 3e
       0.08018264 0.0725265 0.2053652 0.1600157
000090 bb d2 36 be d8 f4 56 be da 52 7a bb e6 7b b0 3e
       -0.17853825 -0.20991838 -0.0038196356 0.34469527
0000a0 97 e3 00 3f 42 41 2c 3e a4 3c e8 3d 56 3b 03 3f
       0.50347275 0.16821769 0.11339691 0.51262414
0000b0 e0 c9 d2 3e a8 61 16 be 55 d9 18 be c6 4f f0 bd
       0.41169643 -0.1468569 -0.14926656 -0.117339656
0000c0 0d 89 c3 3e 9f 2c 84 3e 9b d6 8f 3e 36 9d 40 3e
       0.381905 0.25815293 0.28093418 0.18809971
0000d0 f1 35 5b 3e 9a 03 95 3e 6f 05 ac 3d 30 d6 c3 3c
       0.21407296 0.2910431 0.08399474 0.023905843
0000e0 64 50 75 bd 30 9e 6d 3e c2 1f 34 3e 14 2a 3d 3e
       -0.05989112 0.23204875 0.1759024 0.18473083
0000f0 b8 c8 04 3f 2f 70 30 3e a3 d0 67 3e db de 47 be
       0.5186877 0.17230295 0.22638182 -0.19518606
000100 b4 fa ef bd f7 79 b2 be 22 4e 4e 3e 8c 7d 73 3d
       -0.1171774 -0.34858677 0.20146993 0.059445903
000110 06 93 75 be 8c cf 10 3e 3a 6a bc 3d e7 b6 5d bc
       -0.23981866 0.14141673 0.091999486 -0.013532377
000120 c1 ad de be 3a 42 00 bf 55 95 88 be bd 3c 20 3d
       -0.4349194 -0.50101054 -0.2667643 0.039120425
000130 b1 dc 32 be d3 e1 c2 be e1 80 9a 3e ce e5 46 3e
       -0.17467 -0.38062915 0.30176452 0.19423601
000140 ba 50 1e 3e 62 03 78 be 45 6d d3 be 81 7d 6b be
       0.15460482 -0.2422004 -0.41294304 -0.22997095
000150 5d 28 84 3d c7 06 b7 be 36 5d 16 be 02 2b 90 3c
       0.06453011 -0.35747358 -0.14683995 0.017598633
000160 2b d5 27 3e a3 a4 6c bc 0a 68 23 be 90 dd 9b 3d
       0.16389911 -0.014443549 -0.15957657 0.07610619
000170 30 65 84 bc bb a6 84 bd 62 41 8f be df dd 17 3c
       -0.016161531 -0.06477114 -0.2797957 0.009269207
000180 9d 0c 74 3e 64 a3 b7 3d a1 80 4e bc 2e 58 90 3e
       0.23832937 0.08966711 -0.01260391 0.28192276
000190 b1 b9 ed 3e e7 1c 31 3e 06 b3 9d 3e 00 b1 9b 3e
       0.46430734 0.17296182 0.30800647 0.30408478
0001a0 e5 bf e8 3e e3 4b 83 be 48 ac 1f 3e 7c f0 b2 be
       0.45458904 -0.25643834 0.15593064 -0.349491

encoder1.enc1norm1.weight f4 [4]
000000 24 de 22 3f 83 5b 6c 3f 6f d9 7c 3f 33 c9 3e 3f
       0.6362021 0.92327136 0.9876928 0.74525756

encoder1.enc1norm1.bias f4 [4]
000000 78 07 e8 3e 19 c8 70 3f 6a c8 c9 be 17 bf 30 3f
       0.45318198 0.94055325 -0.39410716 0.6904158

encoder1.enc1norm1.running_mean f4 [4]
000000 0c 6a e6 3d 8c 7c 8e bf 18 75 6b 3e ee 51 bf be
       0.112506956 -1.1131759 0.22993886 -0.37367195

encoder1.enc1norm1.running_var f4 [4]
000000 09 b8 bb 40 38 e9 d9 41 c8 3e 47 40 9e 69 a9 3f
       5.866215 27.238876 3.1132069 1.3235357

encoder1.enc1conv2.weight f4 [4, 4, 3, 3]
000000 2f 34 70 bc cd e4 f3 3e f7 e2 a2 3e ce 9e 62 3e
       -0.014660879 0.476355 0.31813785 0.22130892
000010 26 80 ef 3e 0e 57 e7 3e 4b fc 8a 3e 9a c4 4b 3e
       0.46777457 0.45183605 0.2714561 0.19899216
000020 ee d4 99 3e 6f 27 83 be 69 c4 99 be f6 1d 1e be
       0.30045265 -0.25616023 -0.30032662 -0.15441117
000030 c1 b6 cf 3d 9b 0f bd 3d de f0 20 bd 05 f0 f1 3e
       0.101422794 0.09231492 -0.03929221 0.47253433
000040 0d 6e e0 3e 41 80 0c 3e e4 31 bd bd 38 18 f4 bd
       0.43833962 0.137208 -0.092380315 -0.11918682
000050 fa 7f a7 be ab 80 93 3e a8 b9 8f bc 14 49 bb 3d
       -0.32714826 0.28809103 -0.017544582 0.09144798
000060 fa 9e 18 3f c9 62 08 3f 00 5c 99 3e 13 3c 0a 3e
       0.5961758 0.53275734 0.29953003 0.13499479
000070 df b5 11 be e9 72 17 3d 86 d3 43 be e7 4c 05 3e
       -0.14229535 0.03697482 -0.19123659 0.13017617
000080 31 0e 43 be 04 f5 91 3d 51 c1 14 be e1 61 ec bd
       -0.19048382 0.07126811 -0.1452687 -0.115421064
000090 c4 df 7c be b9 94 c5 be 43 17 44 be 2c 29 67 3d
       -0.24694735 -0.3859003 -0.19149499 0.05643575
0000a0 29 cb 5d ba f4 b8 24 3d 28 90 66 bc aa 5f 91 3e
       -0.0008460754 0.040215448 -0.0140724555 0.28393298
0000b0 c8 f4 64 3d bb e5 98 3d 61 ca 0d 3e 0f 11 6c 3e
       0.055897504 0.074656926 0.13846733 0.23053382
0000c0 30 e9 32 bf 44 7f 87 bf a2 f4 77 be 33 84 9a 3e
       -0.69887066 -1.0585713 -0.24214414 0.30178985
0000d0 2a dc 8b 3e 1d 6b 8b 3e 98 da b0 bd eb fa 4b be
       0.2731641 0.27230158 -0.086354434 -0.19919936
0000e0 d8 3c 83 be a2 db c1 3e 51 ce bd 3e d0 d0 43 3e
       -0.25632358 0.3786288 0.3707147 0.19122624
0000f0 3f 5c 0b be 54 e4 07 be 90 fc da be 88 a4 69 be
       -0.13609408 -0.13270694 -0.42770815 -0.2281667
000100 1a 05 77 be 81 3d ac bd 08 0b 5d 3e 77 ff 87 3e
       -0.2412304 -0.084101684 0.2158624 0.26562092
000110 0b 37 81 bd fc 8c 9b 3e 73 7a d0 3e f9 30 0f ba
       -0.06309327 0.30381 0.4071842 -0.00054623146
000120 17 b9 40 3d 47 ce 81 3d 3c b8 a2 3b cf e5 09 be
       0.047051515 0.063381724 0.00496581 -0.13466571
000130 03 76 8b 3e 5b 60 d9 3e 84 fa 8e be 28 db f6 3d
       0.27238473 0.42456326 -0.27925503 0.120535195
000140 17 9d b3 3e 7a f2 a8 3d ee b7 8d bc 06 8f 77 bd
       0.35080788 0.08249374 -0.017299619 -0.060439132
000150 be 03 ce bc ad aa 57 3d 46 a2 9a 3e ba 35 b4 3b
       -0.025148269 0.052653003 0.3020193 0.005499569
000160 99 08 98 3e d5 10 14 3e 9f 66 95 be 50 0b be bc
       0.2969406 0.14459546 -0.29179856 -0.023198754
000170 cd fb e5 3d be 64 57 be 83 e4 fc bd 16 bb 90 bd
       0.11229668 -0.21034524 -0.12348273 -0.07066934
000180 69 7c 49 be b0 6a 0f be d2 1b 61 bd 6b e6 68 be
       -0.19676365 -0.14005542 -0.054958172 -0.22744147
000190 bc d7 b8 bd 82 45 ca be 6c cb 92 be f8 fc 0f 3e
       -0.09025523 -0.39506155 -0.28670824 0.14061344
0001a0 74 19 98 3e 35 4d 20 be 11 91 3d 3f da 86 3c 3f
       0.2970692 -0.15654452 0.7404948 0.7364327
0001b0 65 cc 48 be 1f 74 59 3d 84 06 db 3d da dc 03 3e
       -0.1960922 0.053089257 0.10694602 0.12877217
0001c0 c3 b7 10 3e d7 7a 24 3d 3f a1 07 bd 1b d5 7e 3d
       0.141326 0.04015621 -0.03311276 0.062214952
0001d0 a9 58 74 bd 40 6d 93 be 3f 18 8b be 4f 9c 12 bb
       -0.059654865 -0.2879429 -0.27166936 -0.0022371
0001e0 9c ae 26 bf 86 35 d7 be a3 0a 83 3e 3f 23 3c be
       -0.6511018 -0.42033023 0.25594053 -0.1837282
0001f0 5a e6 8c be 84 d7 28 3f d5 e2 c3 bc 4f ef 06 3e
       -0.27519494 0.6595385 -0.023911873 0.13177226
000200 b0 2a 97 be db c2 6b 3e 20 4c 90 bd b8 b3 cf 3d
       -0.29524755 0.2302355 -0.0704577 0.101417005
000210 40 59 19 3f 52 04 b7 3e a2 c2 82 3e 31 bb e2 3d
       0.5990181 0.35745484 0.25539118 0.1107086
000220 02 97 77 3e db f3 0b 3f 80 19 ad be 10 83 9d be
       0.24178699 0.5466897 -0.33808517 -0.30764055
000230 0b 34 7a bd b6 90 26 bd cc 06 d8 be a6 a5 6c bd
       -0.06108479 -0.04066535 -0.42192686 -0.057775162

encoder1.enc1norm2.weight f4 [4]
000000 70 07 75 3f b5 bc a0 3f c6 0f 7e 3f cc 17 92 3f
       0.95714474 1.2557589 0.9924282 1.1413512

encoder1.enc1norm2.bias f4 [4]
000000 32 41 2e 3d b1 db b1 bd 8f 6a e7 3e 27 d0 2a 3e
       0.042542644 -0.08684481 0.45198485 0.16680966

encoder1.enc1norm2.running_mean f4 [4]
000000 62 8c de 3f 61 0e 2a bf 5b 3d d4 3f 66 76 8f bf
       1.7386591 -0.6642819 1.6581224 -1.1208007

encoder1.enc1norm2.running_var f4 [4]
000000 16 60 3f 40 3b 09 09 3f e5 fc 86 3f 1d f9 ef 3f
       2.9902396 0.5352971 1.0545927 1.8747898

encoder2.enc2conv1.weight f4 [8, 4, 3, 3]
000000 19 13 56 be 75 d1 c9 3c 3a 1b 8b 3e cd aa a4 bd
       -0.20905723 0.02463601 0.2716921 -0.0804039
000010 8c bd 03 be 6d 3f 6e 3e bf 68 9c 3d 4e 59 e6 3e
       -0.12865275 0.23266383 0.07637166 0.4499001
000020 9d fd 85 3e 3f e1 23 3e ed 62 06 be 3b 13 ce be
       0.26170054 0.16003893 -0.13123675 -0.40249047
000030 dd b5 59 be 3d b1 4e 3f 3c fc 5d 3f 90 23 cb 3a
       -0.21260782 0.80739194 0.86713004 0.0015498269
000040 42 10 fd 3d a9 11 a5 be 23 eb e6 bd 4b 59 bf bd
       0.123566166 -0.32240036 -0.112753175 -0.09343203
000050 b5 22 94 bc 2b 00 64 be 64 bc c0 3e 2c 42 9d 3e
       -0.018082956 -0.22265689 0.3764373 0.30714548
000060 2f 4b 22 3e df ca 73 3e 9b c5 8b 3e 46 e9 36 3e
       0.15848993 0.23807858 0.27299199 0.17862424
000070 5b 0c 97 3d 5b fe 17 bc b7 4f f1 bc ec 8c c4 3d
       0.073754035 -0.009276952 -0.029456956 0.09597191
000080 28 ca 94 bc 79 a0 c8 3c 4f 34 eb 3d 7b 54 de 3c
       -0.018162802 0.024490582 0.114845864 0.027139893
000090 4f 4b a1 be ad e1 24 bf b0 fb 7c bc 72 b4 97 3e
       -0.31502768 -0.64406854 -0.015440866 0.29629856
0000a0 32 ae a6 3d 27 1a 39 bf 00 35 3b be bf ce dc bc
       0.08138694 -0.7230553 -0.18281937 -0.026954053
0000b0 d0 a0 ab bd fb 5b f4 3e c1 6a 6d bd 4a c3 1a bf
       -0.08380282 0.47726426 -0.057963137 -0.6045424
0000c0 24 8e 80 3e b7 3e 50 3e f4 8b 26 bf f9 61 c6 3a
       0.25108445 0.20336424 -0.650573 0.0015135399
0000d0 30 01 92 be 24 15 0b be 46 0c 51 3d e3 ed 00 bf
       -0.2851653 -0.13582283 0.051037095 -0.50362986
0000e0 ea 66 a8 3d 12 bd ef 3e be d4 7f be 4a ae e4 be
       0.08222754 0.46823937 -0.24983498 -0.44664222
0000f0 75 82 fe 3d 28 f0 4d 3e 50 7b 89 3e 56 bf 58 3c
       0.124272265 0.20111144 0.26851892 0.013229212
000100 5f 55 06 3d de bf 91 be f7 9a 05 bc a6 7a 53 3e
       0.03279626 -0.28466696 -0.008154622 0.20652255
000110 08 4d 90 be 5e 14 c2 bd b7 7b d1 bc c9 d9 18 be
       -0.2818377 -0.09476541 -0.025571687 -0.14926828
000120 75 b1 d1 be 3a ed fe be 9d ee 8e be 84 f0 67 3d
       -0.409557 -0.49790365 -0.27916422 0.056625858
000130 5f 8b 8c be fd 5f 50 be e9 b5 da 3e 79 68 eb 3e
       -0.27450082 -0.20349117 0.4271691 0.45978144
000140 29 38 dd 3d 32 30 bc 3e f4 cd e5 bd 37 98 b8 3e
       0.10801727 0.3675552 -0.11220923 0.3605363
000150 b1 99 83 3e 24 38 66 3f cc 17 31 3e 1b e1 be be
       0.25703195 0.89929414 0.17294234 -0.37281117
000160 a3 35 a7 be 44 22 86 be c6 1c 0c bb c4 9e f8 3d
       -0.3265811 -0.26198018 -0.0021379455 0.12139657
000170 16 be 2c be bb 7a e5 3e b5 4e 09 3e a4 5e 27 be
       -0.16869387 0.44820198 0.1340893 -0.16344696
000180 0c 22 96 3e f1 f1 05 3e 34 28 05 bf e0 18 ab 3e
       0.2932285 0.13080575 -0.5201447 0.33417416
000190 82 2e 82 3d 41 d7 93 3e 1d a1 06 3e 13 18 90 3e
       0.06356527 0.28875163 0.13147397 0.28143367
0001a0 c8 7b 83 3e af 2b 67 be 52 bf 9e bd 6f f0 35 bd
       0.25680375 -0.22575258 -0.07751335 -0.04441875
0001b0 27 b4 aa be 0d 5f 31 be 0c 8c cb be 7d d2 88 3d
       -0.3334057 -0.17321415 -0.39755285 0.066807725
0001c0 fd c8 16 be 92 58 c0 be a0 1f 7a be c5 90 91 bd
       -0.14725108 -0.37567574 -0.24426126 -0.07107691
0001d0 29 30 62 bd 81 ff ab 3e 94 1a 16 3f f6 60 a4 be
       -0.05522171 0.33593372 0.58634305 -0.32105225
0001e0 9b d2 49 be 1d 6d 17 bf f1 c6 67 be a5 7c 2e bd
       -0.19709246 -0.5915087 -0.22634484 -0.04259934
0001f0 f5 73 b7 3e 7c 1b ee 3d a4 3a 84 3e f2 66 87 be
       0.35830656 0.11626336 0.2582599 -0.2644573
000200 00 1a 61 bf ae dd d4 3d f7 a2 91 be 17 61 a3 be
       -0.879303 0.103938445 -0.28444645 -0.3191001
000210 82 37 06 be cc f7 44 3e 86 9d 20 3e 7b fe a8 be
       -0.13107112 0.19235152 0.1568509 -0.33006653
000220 ca 76 2e be df af a0 be a0 33 c4 be 44 92 0a be
       -0.17037502 -0.3138418 -0.38320637 -0.13532358
000230 fb d6 00 be c3 7b 44 be 21 56 cb bd 0f 57 e5 bd
       -0.12582009 -0.19187836 -0.09928537 -0.11198246
000240 94 ec 8f bd 22 c3 82 be 43 16 81 be 80 e0 36 bf
       -0.070275456 -0.255395 -0.25212297 -0.7143631
000250 f2 30 45 be 65 12 76 bd f5 f4 2e be 26 a4 8e 3d
       -0.19256952 -0.060076136 -0.17085631 0.069649026
000260 34 48 19 be a3 76 02 bf 25 8f 03 bf 41 53 8e 3e
       -0.1496895 -0.50962275 -0.51390296 0.27797893
000270 ac ca d8 3b 8e d9 ff 3e 48 6e a7 3e 7a 42 d5 bd
       0.0066159572 0.4997067 0.32701325 -0.1041307
000280 29 98 76 3e 4b cc 9d 3d 87 22 b3 be b1 6b 8d be
       0.24081482 0.077049814 -0.3498728 -0.27621225
000290 28 0d 8d 3d 67 c6 3d 3d 3d bf dc 3e 08 3d c0 3e
       0.06887275 0.04633179 0.43114653 0.37546563
0002a0 2f 63 72 3e e0 fc ab 3d a2 97 6c be 14 55 c7 bd
       0.23670648 0.083978415 -0.23104718 -0.09733024
0002b0 8d 75 e3 be b0 21 c1 be 3c cd 65 be 60 3d 85 3d
       -0.44425622 -0.37721014 -0.22441572 0.06505847
0002c0 a7 80 03 be f0 02 b6 bd 3b 12 b7 bd 18 82 7c bd
       -0.12842046 -0.08887279 -0.08939024 -0.061647505
0002d0 8b 34 9d 3d 7e 3a 11 bd 89 76 c0 bd 7b 36 5c be
       0.076760374 -0.035456173 -0.09397609 -0.21505158
0002e0 43 63 0c be 6f 7a 9e be 4e 19 61 be c7 34 2f be
       -0.1370974 -0.30952784 -0.21982309 -0.17109977
0002f0 7f 76 96 be 82 0a 7e be ee 7a 65 be 40 65 2c be
       -0.2938728 -0.24808696 -0.22410175 -0.16835499
000300 86 c6 ba 3e 6a 9d d2 3d a4 cd c0 bd e0 80 29 3e
       0.36479586 0.102839306 -0.09414223 0.16553068
000310 d1 ff d5 3e cf da a9 3e 30 8b c4 3e 39 d8 04 3f
       0.41796735 0.3317475 0.38387442 0.5189243
000320 93 58 7e 3d 5e 33 c7 3d 24 27 81 3e 09 61 4b be
       0.06209619 0.097265944 0.25225174 -0.19861235
000330 83 7e f0 be 85 ff 60 be 64 be d3 be f3 c2 a4 be
       -0.4697152 -0.21972473 -0.41356194 -0.32179984
000340 ab b4 0f bf 6c 74 d7 be 41 3e 42 be 34 21 e6 be
       -0.5613505 -0.4208101 -0.1896906 -0.44947207
000350 45 02 36 bf 58 04 d8 3c cc c2 53 3d fb 6f 17 bd
       -0.71097213 0.026369259 0.051699445 -0.036972027
000360 5f b0 46 3e c8 03 3e 3e 4c d8 ac 3e 13 ed a9 3e
       0.19403218 0.1855613 0.3375877 0.33188686
000370 69 ab 37 3e 34 c8 4b 3e 68 59 18 3e 38 88 3c 3e
       0.17936482 0.1990059 0.14877856 0.18411338
000380 7c 88 c3 3d 42 ee b2 3e e9 6b f5 3e f2 e3 79 3d
       0.09547517 0.349474 0.4793389 0.0610084
000390 63 37 a8 3e e4 d9 b2 bd 24 e7 98 3d 66 a7 d4 3e
       0.32854757 -0.087329656 0.074659616 0.41533965
0003a0 00 14 a8 3e eb f0 c0 bd 20 f7 97 bd f5 2b b7 be
       0.3282776 -0.094209515 -0.07420182 -0.35775724
0003b0 33 d4 da be 12 ab b9 be 00 fc 79 be ef c4 23 be
       -0.4274002 -0.3626333 -0.24412537 -0.15993093
0003c0 f5 94 04 bd cc 6c 46 bd 32 98 a5 bd 5e f6 43 3e
       -0.03236862 -0.0484436 -0.080856696 0.1913695
0003d0 2f 95 2a 3e 69 37 ad 3d bb 7d 30 3e 81 1e fd 3d
       0.16658472 0.08457834 0.17235462 0.12359334
0003e0 35 b6 c7 3d d9 f8 65 3d 92 4b 2f 3e 64 09 a1 3e
       0.0975155 0.056145523 0.17118672 0.31452477
0003f0 2a 27 d7 be 52 bb de be 3f aa 81 be 43 32 3e bf
       -0.42022067 -0.4350229 -0.253252 -0.74295443

encoder2.enc2norm1.weight f4 [8]
000000 5c 01 01 3f c7 c2 c2 3f 12 2b 5e 3f f9 27 a9 3f
       0.503927 1.5215691 0.8678447 1.3215324
000010 52 12 a7 3f 14 af 85 3f 99 d1 33 3f c1 b1 91 3f
       1.3052466 1.0444055 0.70241696 1.1382371

encoder2.enc2norm1.bias f4 [8]
000000 34 63 ac be eb e8 61 3e 6e 30 04 bd 61 3f 2e b9
       -0.33669436 0.22061507 -0.03227275 -0.00016617544
000010 a1 43 b4 be 6e ea 2c bd 6c 8b de be b5 af 1a 3e
       -0.35207847 -0.042215757 -0.43465745 0.1510609

encoder2.enc2norm1.running_mean f4 [8]
000000 31 26 f9 3f 07 ba ca bf 17 ef 9c 3f 4b 10 39 c0
       1.946478 -1.5838021 1.2260464 -2.8916194
000010 cc 99 94 bf 2d d7 f1 bf 8d c6 a9 3f 18 95 3a c0
       -1.1609435 -1.8893791 1.3263718 -2.91535

encoder2.enc2norm1.running_var f4 [8]
000000 1f 35 6e 40 04 20 6d 40 07 24 48 40 3b 70 c8 40
       3.7219923 3.705079 3.127199 6.2637
000010 cf 18 c7 40 2c 66 15 41 8e 8d 20 41 99 67 14 41
       6.2217784 9.337444 10.034559 9.275292

encoder2.enc2conv2.weight f4 [8, 8, 3, 3]
000000 c1 bf 23 bf 17 28 e3 be 87 d4 39 be 39 be 4c bd
       -0.6396447 -0.44366524 -0.18147479 -0.049986098
000010 25 3e 20 bc 62 77 02 be 7e 03 9d bd 02 78 42 3d
       -0.009780441 -0.12740853 -0.07666682 0.04747773
000020 c9 b1 43 3e e8 e8 4f 3d c3 cb 80 3b 7f 8b e1 3d
       0.19110788 0.050759226 0.0039305403 0.11012935
000030 14 49 66 be 4d 5b a0 bd 94 1f a8 3e 5d bf ca bd
       -0.22488815 -0.07829914 0.32836592 -0.09899781
000040 b8 9a 3b be 8c 8a 42 be 1c 10 07 bf 95 0b 4a bf
       -0.1832074 -0.18998164 -0.52758956 -0.7892392
000050 70 28 55 bf bd 67 26 3e 83 df 8c 3e a1 da a2 3c
       -0.8326483 0.1625051 0.27514276 0.019879641
000060 04 3a e6 3d 54 b2 ab 3d 73 a9 e9 bc e1 80 0e be
       0.11241534 0.08383623 -0.028523182 -0.13916351
000070 33 de 5c 3d 68 3d 93 3e d5 cb 5d bf 02 de dc be
       0.053922843 0.28757787 -0.8663915 -0.4313813
000080 19 34 18 be 60 b1 f5 be 3a 26 95 3e ea 22 0c 3f
       -0.14863624 -0.4798689 0.29130727 0.54740775
000090 65 e3 e4 3d 2e 47 ec bd be 4c ae be 90 6c ba 3e
       0.111761846 -0.11537014 -0.34042925 0.36410952
0000a0 9f 80 a6 3e be 0e 85 3e 2a dd b6 3d f9 22 f9 3c
       0.32520005 0.2598781 0.089289024 0.030412184
0000b0 78 65 47 3e 3e c4 ab 3d b6 84 67 3e ba 6b 52 3c
       0.19472301 0.083870396 0.22609219 0.012843067
0000c0 f6 cb 1f 3f 65 f3 da 3e 5c ec fb 3e 3a 93 ba 3e
       0.62420595 0.4276382 0.49203765 0.3644045
0000d0 10 15 06 3e 99 e1 81 be 78 a9 19 be 47 36 97 bd
       0.13093972 -0.2536743 -0.15006053 -0.073833995
0000e0 a5 8d 0e 3e 33 7a 17 bc 0a 48 c4 bd 0c f3 02 be
       0.1392122 -0.009245443 -0.09584053 -0.12788028
0000f0 c3 cc f0 bd f9 df 4b 3d 2f d4 72 3e 9a c7 c2 be
       -0.11757805 0.049774144 0.23713754 -0.3804291
000100 a9 dd ef be 55 46 85 be 67 ee d7 3e 42 91 a8 3e
       -0.468488 -0.26030222 0.42174074 0.32923323
000110 c1 79 4d 3c 78 b5 5d 3e cc 7f 11 3c 52 c4 67 3d
       0.012541235 0.21651256 0.008880567 0.05658371
000120 ad b8 59 be 69 c5 a4 be dd 61 36 3e 78 89 58 3e
       -0.21261854 -0.32181862 0.1781077 0.2114619
000130 6e 06 aa 3e e0 04 77 3c 45 90 0f bd 0d b0 71 be
       0.3320803 0.015076846 -0.035049696 -0.23602314
000140 89 d9 5b bd 73 18 96 3e c4 c8 e0 be 07 36 b7 bd
       -0.053674255 0.29315528 -0.43903172 -0.08945852
000150 7e ce 2d bc 3c 21 64 3f 71 59 7f 3e cb 4f 13 bf
       -0.010608314 0.8911321 0.24936463 -0.5754363
000160 40 df 01 bd 13 e3 cc 3e 88 40 86 3d 41 91 8c be
       -0.03170705 0.40016994 0.06555277 -0.2745457
000170 85 96 0b bf 32 5b 95 3c 87 4b 98 3d 7f c1 4a be
       -0.5452655 0.018231962 0.07436281 -0.19800375
000180 08 50 d8 3e bf b6 92 be 50 fa 98 be 17 17 9a be
       0.4224856 -0.2865505 -0.29878473 -0.3009574
000190 f7 d7 67 bc 84 b5 81 be fb 1e e1 3e 4e 9d 20 3e
       -0.014150611 -0.25333798 0.4396895 0.15685007
0001a0 33 e1 ff be 62 ce 2d 3e 2e a5 9c 3e 1d 2f 6e 3e
       -0.499765 0.1697326 0.30594772 0.2326016
0001b0 fb 7f 51 3e 0d 6a 4c 3d dd c2 f6 be d4 10 e5 bc
       0.20458977 0.049905825 -0.48195544 -0.027962126
0001c0 cc ba b3 bd 6b ae cc be c7 91 1d 3e 9c 72 bc be
       -0.08775863 -0.3997682 0.15387641 -0.3680619
0001d0 62 f6 30 be ca e7 a4 3e e1 f9 8f 3e 94 83 97 3a
       -0.17281488 0.3220809 0.2812033 0.0011559599
0001e0 8b bb a5 3e 7e f3 b1 3d 9e 5c dd 3e 62 81 26 3e
       0.32369646 0.086890206 0.43234724 0.16260293
0001f0 7b f6 83 bd 55 91 b2 be 79 57 9b bc eb 5d 99 3e
       -0.06443497 -0.34876505 -0.018962609 0.29954466
000200 5f d8 9f 3e 39 39 73 bc 40 2a a6 bd 4f 42 6c 3d
       0.31219766 -0.014845186 -0.08113527 0.057680424
000210 99 5b 34 3d 3d 0a 56 3c e3 43 8e 3e 2c 68 bb be
       0.044032667 0.013063964 0.27786168 -0.36602914
000220 a1 68 e6 bc da 67 d9 3e 43 56 a6 be a0 26 58 be
       -0.028126063 0.42462045 -0.32487687 -0.21108484
000230 b7 bc c7 3d ab 95 fa bd af ff 8f 3d 2e 35 4d 3e
       0.097527914 -0.12235578 0.0703119 0.20039818
000240 40 eb e9 bd dd 40 30 3e 2f 20 82 3e 6c a4 c4 bd
       -0.114218235 0.17212243 0.2541518 -0.096016735
000250 b7 aa d4 bb cd f9 c8 3e 51 80 72 be 7b cc 0b be
       -0.0064900774 0.39253083 -0.23681761 -0.13652222
000260 97 65 10 be 17 95 23 bf 3a 67 0b bf f0 9a 02 3f
       -0.14101253 -0.6389937 -0.54454386 0.51017666
000270 70 5b 2b bf d6 b6 ea be 06 e1 3e 3e 86 a4 aa bd
       -0.669364 -0.45842618 0.18640527 -0.083321616
000280 4e 1a c7 3d 9f a5 86 3e 76 fc 65 3d 2a 86 65 3e
       0.09721814 0.26298234 0.05614897 0.22414461
000290 07 03 ea 3e 69 20 c6 be 8f 7c a5 3d 98 bb 0b 3f
       0.45705435 -0.38696602 0.08080398 0.5458312
0002a0 69 cb ba 3c 18 dd 25 3e 7c 18 3c bd d0 fd ba 3d
       0.022802072 0.16197622 -0.045921788 0.09130442
0002b0 69 31 5f bd ce 1e 27 be 3f 6b 07 be 67 31 b8 be
       -0.05449048 -0.16320345 -0.13224505 -0.3597519
0002c0 85 76 b6 be f1 0d 26 be 19 ad 0a bd 9d 3d 9f 3c
       -0.35637298 -0.16216256 -0.033856485 0.01943856
0002d0 3f 06 bc be ae e2 f0 be 1d 25 b5 3d 7b f2 71 be
       -0.36723515 -0.47047943 0.088449694 -0.23627655
0002e0 aa e3 d4 be 2e b1 91 be 1b 7e af bd a0 08 4b 3d
       -0.41579944 -0.2845549 -0.085689746 0.049568772
0002f0 1a 8c bd bd 60 e6 40 be f8 c7 78 be e0 85 71 3d
       -0.09255238 -0.18837881 -0.24295032 0.058965564
000300 ab 3a 47 3c f1 68 ee 3d e5 37 0f be 82 51 98 3e
       0.012159984 0.1164111 -0.13986166 0.29749686
000310 53 4f 92 3e 8e 8e bb 3c 91 30 be be 1b 0b b4 be
       0.28576145 0.022895124 -0.37146428 -0.35164723
000320 5b c5 de be 79 fa ca be 65 e4 9a be 77 50 d1 be
       -0.43509945 -0.3964422 -0.30252376 -0.40881702
000330 c9 55 d3 be b3 f6 84 be 03 53 9b be 91 80 9e bd
       -0.41276386 -0.25969467 -0.3033677 -0.07739366
000340 36 5d f3 be c9 80 f4 be 7f b2 03 3e 60 2e 2c bd
       -0.47532052 -0.47754505 0.1286106 -0.042036414
000350 97 d4 f1 bd 89 49 f1 3e 25 64 55 3e 27 b7 72 3e
       -0.118081264 0.47126415 0.20838983 0.2370268
000360 61 38 a5 bc 65 d0 61 3d b4 7d 36 3e 41 ac a3 bd
       -0.020168485 0.05513038 0.1782139 -0.07991839
000370 75 80 17 be 7f 29 85 3d d9 2f b5 be 6a 2b 91 be
       -0.14795096 0.065020554 -0.35388067 -0.28353435
000380 61 4c 61 be 71 56 aa 3e 10 42 98 bd 12 0d 41 be
       -0.22001792 0.33269075 -0.074344754 -0.18852642
000390 1e 4c 48 3f 39 c7 98 3e 98 51 df be 94 cc 17 3d
       0.78241146 0.29839495 -0.4361694 0.037060335
0003a0 e3 c6 75 bd 25 e1 7a 3d 03 34 64 3e 8e 5e 8e be
       -0.060004126 0.06124987 0.22285466 -0.27806515
0003b0 6f ed 10 be ce d0 31 be 17 af 50 be 9e c8 9d bd
       -0.14153074 -0.17364809 -0.20379291 -0.0770428
0003c0 c9 f0 c4 be 4b 3f dd be 19 43 e4 be 45 8a a9 bc
       -0.38464954 -0.4321235 -0.4458244 -0.020695815
0003d0 48 2c 51 3e 67 26 46 be 9f 6e 36 3f cc fd 80 3e
       0.20427048 -0.19350587 0.71262544 0.25193632
0003e0 bd be 9b be 52 87 e7 3e 58 5d 2e be 45 91 cc be
       -0.3041896 0.4522043 -0.17027795 -0.39954582
0003f0 24 99 74 be 57 2d 80 be ff 78 15 3e 2d 0e 91 be
       -0.23886544 -0.25034592 0.14596938 -0.28331128

encoder2.enc2norm2.weight f4 [8]
000000 94 6d 8f 3f 4a 4e 83 3f f4 74 6d 3f be 35 9f 3f
       1.1205316 1.0258267 0.9275658 1.2438276
000010 84 c4 83 3f 0f 8c 6c 3f 3a 2e b1 3f 14 2d 4b 3f
       1.0294347 0.9240121 1.3842232 0.7936566

encoder2.enc2norm2.bias f4 [8]
000000 87 b2 0f bf 93 5c 6f bf 6e d1 f7 be 31 c8 d1 3c
       -0.56131786 -0.9350063 -0.4840197 0.025608154
000010 59 9c c3 be b3 6b 7a be 34 84 36 bf c4 92 12 be
       -0.3820522 -0.24455146 -0.71295476 -0.14313799

encoder2.enc2norm2.running_mean f4 [8]
000000 57 9e 21 be f5 ca cb 3e 37 d9 fe bf 2a 10 e2 3d
       -0.15783058 0.3980328 -1.9910039 0.11038239
000010 d9 af 72 bf 28 be 83 be 72 de 69 bf c7 5c 34 3f
       -0.9479957 -0.25731015 -0.9135505 0.70454067

encoder2.enc2norm2.running_var f4 [8]
000000 c6 17 65 40 6a a8 c8 3f 1c 3c 59 40 9e b8 68 40
       3.579576 1.5676396 3.3942938 3.6362681
000010 5c 96 b1 3f ca 74 d6 3f ea c8 db 3f 13 a4 22 40
       1.3874011 1.6754391 1.7170689 2.5412643

encoder3.enc3conv1.weight f4 [16, 8, 3, 3]
000000 b4 a3 31 bd 56 5f 78 3d 6b 3b fe 3c 73 3c 26 3e
       -0.04336901 0.060637794 0.031034192 0.16233997
000010 c8 13 28 3e 01 0d f7 3e 9e 32 2e 3e 1b 23 d8 ba
       0.16413796 0.4825211 0.17011496 -0.0016489954
000020 6d 23 ae 3e ca e4 eb bd 25 da 83 bd 8f 4d 40 be
       0.34011403 -0.115182474 -0.06438092 -0.18779586
000030 c5 a0 2e 3e ed 29 a6 bd aa 17 26 bf a7 a4 ee be
       0.17053516 -0.081134655 -0.6487986 -0.46609995
000040 29 44 6e be d1 d3 21 bf 41 d6 40 3d 45 42 34 3d
       -0.23268189 -0.6321383 0.04707933 0.044008512
000050 ad 9b 33 be 9a 96 1d be e5 28 78 3d 0a 15 39 be
       -0.17539854 -0.15389481 0.060585875 -0.18074432
000060 b3 00 2c bf 53 92 ba be b3 77 3d 3d 57 95 67 bd
       -0.67188567 -0.36439762 0.046256732 -0.056538906
000070 cb ec 6b bd 47 11 9f bc f4 4e 45 3e ce b0 2c 3e
       -0.05759887 -0.019417418 0.192684 0.1686432
000080 f2 d9 a6 be 8a c6 51 be d0 77 b4 3d 1e f9 23 be
       -0.32588154 -0.20485893 0.08811915 -0.16013
000090 c2 6a a9 3e 90 9d cd 3e e7 5e 20 bd 16 81 fb be
       0.33089262 0.40159273 -0.039153006 -0.49121922
0000a0 cd 09 41 bd 53 cc 03 be 94 d1 72 be ff 01 01 3d
       -0.047128487 -0.12870912 -0.2371276 0.031496044
0000b0 e3 90 ef bd ed 84 8f 3d c4 5a 63 3e 0c dc 29 3e
       -0.11697557 0.070077755 0.22202593 0.16587847
0000c0 23 e9 5a bd 5b 65 c7 3e b9 4a 18 3f dd 71 7c be
       -0.053444993 0.38944516 0.5948902 -0.2465281
0000d0 f4 95 a7 bd db a6 a1 3d 98 e7 ae 3e d4 e9 42 be
       -0.08182898 0.07893153 0.34161067 -0.19034511
0000e0 35 0a 64 bf 12 d9 da 3e eb 02 18 3f 89 41 b5 3e
       -0.89078075 0.42743737 0.5937945 0.35401562
0000f0 b0 90 55 bf 2a 86 ae bc 60 89 3e 3f 15 dd 8a bd
       -0.834239 -0.021304209 0.7442837 -0.06780449
000100 9e 5b c9 bc 4f f0 00 3e 17 17 7c 3d ba 4a dd bd
       -0.02457982 0.1259167 0.061545458 -0.108052686
000110 de 9e c4 be ae 0b 9d be 83 c2 e4 bd d1 3e 66 3c
       -0.38402456 -0.30672973 -0.11169913 0.014053063
000120 84 81 19 bc 76 8e 94 bd 1f 5f bb bd ab b2 fa bd
       -0.009369258 -0.07253735 -0.09149002 -0.122411095
000130 69 f9 51 be 87 ff 04 bf 7b 60 89 3d f4 84 4a bd
       -0.20505299 -0.51952404 0.06707855 -0.0494432
000140 95 1f a9 be 45 43 d6 be 6d a2 c2 be d5 04 1e be
       -0.33031908 -0.41848198 -0.38014546 -0.15431531
000150 5c 08 69 be 28 a8 25 be 27 13 98 be d0 4d 8d be
       -0.22757095 -0.16177428 -0.29702112 -0.2759843
000160 7f 3b c2 bd 6f 5f 68 3d 81 62 96 bd d5 5e e7 bd
       -0.09484004 0.056731638 -0.07343007 -0.11297385
000170 0a 7c 8f 3d e6 a6 25 3b 1b 1f cb bd 25 e5 1f 3e
       0.070060804 0.0025276481 -0.09918042 0.15614755
000180 68 e3 51 be ee 83 53 be 10 6f 3c bc 03 39 73 bd
       -0.20496905 -0.20655796 -0.011501089 -0.059380542
000190 2d 2d 42 bd 9a 5c c0 be a0 d2 16 be ee 8d 8e be
       -0.047406364 -0.3757065 -0.14728785 -0.2784266
0001a0 fb b7 c2 be 18 a9 67 3e d1 6d 0d 3e bf 02 a7 3e
       -0.3803099 0.22623098 0.13811423 0.32619283
0001b0 77 b3 95 b9 3c 9e 40 3c 0c 00 99 3e 4a 5b 8d be
       -0.00028553206 0.011756476 0.29882848 -0.2760871
0001c0 ce 0a fa bd e1 9b c3 3d 3c e6 74 3d f6 71 ad 3e
       -0.12209092 0.09551216 0.05978988 0.33876008
0001d0 fd 4c fd 3e c5 8c fb be 40 1e ac be 26 24 a1 be
       0.494728 -0.49130836 -0.3361683 -0.31472892
0001e0 85 8f c8 be 3d 31 a9 be 7e ce 05 3e 68 e1 64 3e
       -0.39171997 -0.33045378 0.13067052 0.2235161
0001f0 c8 a4 80 3e e3 01 19 3f 14 7f b5 3e e2 dd 78 be
       0.25125718 0.59768504 0.35448515 -0.24303392
000200 2f dd 18 bf 94 11 40 bd 4e 06 06 be 68 07 7b be
       -0.597125 -0.046891764 -0.13088343 -0.24514544
000210 66 d5 1b 3e 4f 6c f6 3e 68 17 e4 3e 7a 21 7d be
       0.15218124 0.48129508 0.44549108 -0.24719802
000220 bb 03 c5 be 35 68 bf be d6 c2 29 bd a0 23 90 3e
       -0.3847941 -0.3738419 -0.041445576 0.2815218
000230 63 b7 98 3e 27 12 b5 3e c2 8f 24 3f 2e b4 f9 3e
       0.29827413 0.35365412 0.64281857 0.4877028
000240 79 90 13 3f 48 0f 1c 3f e5 a3 28 3f 57 7d 5c 3f
       0.5764232 0.6096082 0.65875083 0.86128753
000250 f5 17 4b 3f 68 cb e3 3e 85 38 a4 3e a7 87 d7 3d
       0.7933343 0.44491124 0.3207437 0.105239205
000260 69 c1 0f 3e fb 2c 53 bd 45 82 fe bd 7a 69 ce 3d
       0.14038624 -0.05155657 -0.12427191 0.10078712
000270 f3 07 af bd 35 12 cc 3e 35 3c ed 3e 2c 28 8c 3e
       -0.08546438 0.3985764 0.46334997 0.273744
000280 01 ec 89 3e b9 0f 01 3e 25 54 aa be 79 d6 d0 bd
       0.2693787 0.12603654 -0.33267322 -0.101971574
000290 dc e8 94 bd 6a fe a6 be 90 07 f3 bd db 5d 71 3c
       -0.07270977 -0.32615978 -0.11866677 0.01473185
0002a0 b5 58 9b 3c 6a f5 04 3d ba f0 ad bd 5d 13 57 3d
       0.018963197 0.032460608 -0.084931806 0.0525087
0002b0 2d cc 02 bd 84 91 d3 bd cf c8 25 be 89 5b 86 be
       -0.031933 -0.10330489 -0.16189884 -0.2624171
0002c0 f9 59 a8 bd 09 70 34 be 42 b9 59 3b 7a 44 37 3e
       -0.08220286 -0.17620863 0.0033221995 0.17897215
0002d0 dc c8 97 bc fd 63 5d bd a7 42 7b bd 2f de ec bd
       -0.018528394 -0.054050434 -0.06134286 -0.11565816
0002e0 c5 f9 a9 3d ed a1 dd 3d 10 51 11 be 09 a9 a1 3d
       0.08299593 0.108219005 -0.14191079 0.07893569
0002f0 40 df 13 3e 6a 84 33 be 66 34 b7 bc 93 60 90 3e
       0.14440632 -0.1753098 -0.022363853 0.2819868
000300 ba 71 ea 3d 32 c3 85 3e d4 8e 7d 3e 5d 0c a3 3d
       0.11447473 0.26125485 0.24761516 0.079613425
000310 24 da db 3d 3e e6 03 3e 19 b7 86 3e 2f 28 c2 3e
       0.107349664 0.12880799 0.26311567 0.37921283
000320 26 b6 93 3e c6 30 19 3f 20 86 7a 3e 6c 58 26 bf
       0.28849906 0.5984005 0.24465227 -0.6497867
000330 06 7e 0d 3e 90 70 5b bd d9 18 66 be 8e b3 bb bb
       0.13817605 -0.053574145 -0.22470416 -0.0057281917
000340 81 b3 01 3e a9 09 54 bd 82 78 59 bd 88 f7 a2 bd
       0.12666132 -0.051767025 -0.05309344 -0.07957369
000350 8c 68 40 be db 2a c7 be 4f ff 63 be cb 4b f5 3c
       -0.18789881 -0.38899884 -0.22265361 0.029943367
000360 86 e5 4b be e8 66 d3 bd d3 f8 ba be 8f 99 90 3d
       -0.19911775 -0.10322362 -0.36517963 0.07060539
000370 81 a4 a9 3e 51 a4 40 3d c0 fa 1b bc e2 bb 22 3e
       0.3313332 0.047031704 -0.009520233 0.15891984
000380 3b 8d aa 3e 9f 6c eb be f6 7c c3 bd cb 26 87 3e
       0.33310875 -0.4598131 -0.09545319 0.26396784
000390 b9 7c 0c be 68 3e d3 bd 72 0d ba be 57 9f 22 3e
       -0.13719453 -0.103146374 -0.36338383 0.15881096
0003a0 11 2a 30 3d 3d 12 80 be 7b aa 3b bf 99 91 19 bf
       0.043008868 -0.25013915 -0.7330701 -0.5998779
0003b0 9a f3 38 bf 52 16 3b 3e 65 ef dc bc ea 50 55 be
       -0.72246706 0.18270233 -0.026969621 -0.20831648
0003c0 99 39 15 3f c1 6b c0 3e ff 7c 9d 3d d3 ec 87 3e
       0.5829101 0.3758221 0.07689857 0.2654787
0003d0 c8 7b 31 3e 9f d6 96 3e 9e b2 db be 51 74 26 bf
       0.17332375 0.29460618 -0.42909712 -0.65021235
0003e0 1a 65 77 be 27 f6 af bd 9e 69 f0 be 4a 13 da be
       -0.24159661 -0.08591872 -0.4695558 -0.4259284
0003f0 cc 75 c3 be e2 36 f3 bd 0e b7 30 bd 93 59 f5 be
       -0.3817581 -0.118757024 -0.043143325 -0.47919902

encoder3.enc3norm1.weight f4 [16]
000000 f9 15 9c 3f 4c 92 6b 3f fd b2 7f 3f 35 d9 9d 3f
       1.2194206 0.92020106 0.9988249 1.2331911
000010 79 78 3d 3f 62 d5 8e 3f 71 a5 7f 3f 7c b3 98 3f
       0.7401195 1.1158869 0.9986182 1.1929774
000020 d2 4c 84 3f 13 4a 73 3f d0 58 75 3f fa e1 73 3f
       1.0335944 0.95034903 0.9583864 0.9526669
000030 7b 8b a1 3f bd bf a5 3f 98 8a 35 3f fd 66 6b 3f
       1.2620691 1.2949139 0.709146 0.9195402

encoder3.enc3norm1.bias f4 [16]
000000 fc a8 51 bf 3d 71 ba be 22 4d fe be 6f 9f e1 bd
       -0.81898475 -0.3641452 -0.49668223 -0.11016738
000010 ce 42 a5 be d4 45 e5 bb 18 f5 ca bd 84 b3 d7 bd
       -0.3227753 -0.0069968496 -0.09910029 -0.10532287
000020 aa 7a da be da 0a e3 be f4 5f 80 bd 18 f2 f0 be
       -0.4267171 -0.44344217 -0.062683016 -0.47059703
000030 99 71 6c bd 40 41 1f be eb 6f 02 3d 23 e1 68 be
       -0.057725523 -0.15552235 0.031845015 -0.22742133

encoder3.enc3norm1.running_mean f4 [16]
000000 8b 14 db be fd 86 27 bf 73 2c 97 3f 2c 6d 8c c0
       -0.4278911 -0.6544035 1.181044 -4.3883266
000010 eb f7 8d c0 df de 7d c0 df e1 9a c0 02 ad 18 c0
       -4.4365134 -3.966728 -4.840072 -2.3855596
000020 41 24 37 bf 42 ac 89 bf b0 f2 a0 c0 47 26 f0 3e
       -0.71539694 -1.0755694 -5.029625 0.46904203
000030 fb 2a 53 c0 fc d4 14 bf ae cc 74 c0 f2 f1 db bf
       -3.2994983 -0.5813749 -3.8249927 -1.7183211

encoder3.enc3norm1.running_var f4 [16]
000000 33 02 73 40 f8 16 97 40 da 76 08 41 b4 e5 20 41
       3.7970092 4.721554 8.5290165 10.05608
000010 7d a2 0f 41 3e 1b 77 41 f3 1a a3 41 75 29 cf 40
       8.97717 15.444151 20.388159 6.4738107
000020 66 50 a8 40 e7 2a b9 40 f7 16 9b 41 72 af 10 41
       5.2598143 5.786487 19.386213 9.042833
000030 c2 09 2a 41 7f b6 bd 40 ed ac fb 40 09 7e 04 41
       10.627382 5.9285274 7.864859 8.28077

encoder3.enc3conv2.weight f4 [16, 16, 3, 3]
000000 70 36 1f 3f 56 c2 36 3f d6 e7 2d 3f b5 ad 7d be
       0.6219244 0.71390283 0.6793188 -0.24773295
000010 f1 9d 92 3e bc 3d 33 3f b4 d1 6e be 25 f3 b8 3d
       0.28636125 0.70016074 -0.23322183 0.09030751
000020 67 ed 92 3e 06 72 ca 3e ca a9 37 3e a7 43 29 be
       0.2869675 0.39540118 0.17935863 -0.16529714
000030 2c dc aa be 10 88 8b be 16 7d da be f2 be 77 be
       -0.33371103 -0.27252245 -0.42673558 -0.24193934
000040 19 02 3d 3d 43 45 4c be aa 6c 87 be 38 57 40 be
       0.04614458 -0.19948296 -0.26450092 -0.18783271
000050 8b cb e2 bd 65 9a f3 be b3 69 03 bf 03 2e fd be
       -0.11073979 -0.4757873 -0.5133316 -0.49449167
000060 40 08 e2 be be 19 3a bf bc 5f 1f bf 3d 68 58 3e
       -0.4414692 -0.7269553 -0.62255454 0.21133514
000070 7f 80 30 3e 77 47 9b 3d 39 f0 27 3e 0b ad 28 3d
       0.17236517 0.0758199 0.16400231 0.04118065
000080 db 22 9f bd 9b 66 1a bd 0b 77 73 be 7d 63 93 be
       -0.0777032 -0.03769551 -0.2377588 -0.2878684
000090 e7 07 15 be 37 3f 3d be e2 1e 8c be a2 e5 fc bd
       -0.14553796 -0.18481146 -0.27367312 -0.123484865
0000a0 3d 1a 9f be f8 65 a8 be 05 a4 45 be 80 f1 5a be
       -0.31074706 -0.32890296 -0.1930085 -0.21381187
0000b0 4b d1 d7 be a7 6c c8 be 53 88 eb be c1 fb 38 be
       -0.42151865 -0.39145395 -0.46002445 -0.18064786
0000c0 6a 1a dd bd 9b 0f 3e be 1a 01 dd bd cf 17 d0 3e
       -0.10796054 -0.1856064 -0.10791226 0.40643165
0000d0 a6 8b aa 3e dc 0e 53 3e 97 df 95 be 7b 15 bb be
       0.33309668 0.20611137 -0.29272148 -0.36539826
0000e0 ab f0 20 be 6d b4 69 be 71 a5 ad be cc 97 60 be
       -0.15716808 -0.22822733 -0.33915284 -0.21932906
0000f0 53 30 96 3e c5 d9 1e 3c b6 7a 04 be cf 74 50 be
       0.29333743 0.009695475 -0.12937436 -0.20357059
000100 0e 28 8c be 29 77 a7 be 05 7f 81 3d 78 9e ab be
       -0.2737431 -0.327081 0.06323055 -0.3351934
000110 6c 6e 69 be 7a 9b 71 3d 7a d9 f8 3c be 87 2f 3e
       -0.22796029 0.058986165 0.030377138 0.17141625
000120 1b aa 86 3e e8 00 33 3d 02 84 2b 3e 8a fb 96 3c
       0.26301655 0.043702036 0.16749576 0.01843049
000130 ed a0 6e bd 4e e6 c3 bd 2a 7e 4b bd 65 40 74 3c
       -0.05825894 -0.095654115 -0.049680866 0.014907931
000140 13 02 91 3d 53 e2 91 bd 5e 21 bf be a5 79 2f bf
       0.07080474 -0.07123246 -0.37330145 -0.6854499
000150 0a fd ab 3e 08 a0 40 3c bb 44 4c be ba 3e 78 3e
       0.3359149 0.011756904 -0.19948094 0.24242678
000160 e6 87 b9 3e 37 8d f0 3e 4f df b3 be de 06 94 be
       0.36236495 0.46982738 -0.35131308 -0.2891149
000170 10 4e 35 be 7d 5b 80 be b4 29 d0 be 67 89 bf be
       -0.1770556 -0.250698 -0.40656817 -0.37409517
000180 3a e0 35 3e af c2 20 be cc 03 84 be be 2a b9 be
       0.17761317 -0.15699266 -0.25784147 -0.36165422
000190 11 6d a1 bd 6a 0e 18 be 41 51 ef be e8 45 26 bf
       -0.07882131 -0.14849249 -0.4674168 -0.6495042
0001a0 db 38 b8 be 35 d3 aa be 40 02 c8 be 25 09 c4 be
       -0.35980877 -0.33364263 -0.39064217 -0.38288227
0001b0 53 58 65 be 06 4e a0 be 77 d5 11 bf 6e f1 1d 3e
       -0.22396974 -0.31309527 -0.56966347 0.1542413
0001c0 41 9e 89 3e 43 02 85 3e 8b 2e 66 3f e6 e7 1f 3f
       0.2687855 0.25978288 0.8991477 0.62463224
0001d0 25 a0 ef 3e 4b 1c 41 bf eb da c5 be 19 86 19 be
       0.46801868 -0.75433797 -0.38643584 -0.1499256
0001e0 aa 25 e6 be ae b4 c4 be fd 34 00 be 23 0f 65 be
       -0.4495061 -0.38419098 -0.12520213 -0.22369055
0001f0 60 01 66 be e9 ae 2f be 14 36 17 be f6 20 8c be
       -0.22461462 -0.17156567 -0.14766723 -0.27368897
000200 6c cd a2 be 0d 69 95 bd 57 5b 11 be ad 97 6c be
       -0.3179735 -0.072954275 -0.14195 -0.23104735
000210 70 04 2e 3d 37 fc a6 bd be 62 aa be 97 ce 85 3e
       0.0424847 -0.08153575 -0.3327846 0.26134178
000220 b2 66 34 3d de 54 53 3d 09 30 43 be 31 e1 d9 3b
       0.04404325 0.051594608 -0.19061293 0.0066491594
000230 e5 fd d3 bd 5f e7 98 be be 52 03 be 3a b2 b5 be
       -0.10351161 -0.29864022 -0.12824532 -0.3548754
000240 f3 9b db bc 0a cd 48 be 33 55 91 be 6f 39 54 be
       -0.02680776 -0.19609466 -0.28385314 -0.20725034
000250 0b de 21 be 6a fa 65 be a2 07 67 be fb 07 c1 bd
       -0.15807359 -0.22458807 -0.22561505 -0.0942535
000260 30 41 3c be 93 fc 99 3c b4 e9 38 3d d2 72 74 3e
       -0.18384242 0.018797195 0.04514475 0.23871925
000270 f2 c7 78 3e e1 b1 c1 3e 74 bf c5 3e 77 0d 13 bd
       0.24295023 0.37831023 0.3862263 -0.035901513
000280 29 15 f1 3d 0a 16 ba 3d 35 31 c7 be cc 95 4e be
       0.11771614 0.09086235 -0.3890473 -0.2017433
000290 e4 30 80 be d3 c3 93 be 26 f9 25 be c7 b5 5a be
       -0.250373 -0.2886034 -0.16208324 -0.21358405
0002a0 32 97 82 be d2 6e f7 bd 76 fb db bd 4c ce 02 3d
       -0.25505978 -0.12081684 -0.10741322 0.03193502
0002b0 2e 06 95 3e 7e e7 af 3d 69 30 1a 3d d7 ff 47 3e
       0.29106277 0.085890755 0.037643824 0.19531189
0002c0 1c 97 03 bd 16 0a d4 3c da ce 5c 3e 55 6b f9 bd
       -0.03212653 0.025883716 0.21563283 -0.12178675
0002d0 20 e9 25 3e cb 48 3c 3e d8 5e 4e 3e 69 c3 0b 3e
       0.16202211 0.18387143 0.20153368 0.13648762
0002e0 d4 49 ef 3d cb 67 d3 3c 85 46 fb 3c 97 21 ca 3d
       0.116840035 0.025806328 0.030673275 0.09869688
0002f0 1a b1 4b bd d4 3c 74 3c f3 18 7f bd 6f 15 86 bd
       -0.049729444 0.014907081 -0.062279653 -0.06547057
000300 b2 a7 08 bd 9c 25 00 bc 23 11 47 be 69 9f 3e bd
       -0.03336305 -0.007821467 -0.19440131 -0.046538744
000310 16 e8 47 bc be 47 1f be 3b 66 98 bd 01 74 23 3e
       -0.01220133 -0.15554711 -0.07441374 0.1596222
000320 a8 7b 0d 3e 87 db 86 3d 12 d0 a5 3d 1d d6 e3 bc
       0.13816702 0.0658484 0.08096327 -0.027812058
000330 ab de 6f bc 65 61 8e 3d bd c6 fc bc e9 35 28 be
       -0.0146404905 0.0695217 -0.030856485 -0.16426815
000340 23 e7 75 3d e1 3c 0a 3e 68 21 3d be 33 22 19 be
       0.060034882 0.13499786 -0.18469775 -0.14954452
000350 e1 ae 07 be 10 a9 8d be a8 ae 15 be 60 36 84 be
       -0.13250305 -0.27668047 -0.14617407 -0.25822735
000360 a9 ed 28 3e e2 99 05 3e fe 13 80 bb 89 1a b8 3e
       0.1649691 0.13046983 -0.0039086333 0.35957745
000370 b4 51 14 3e e4 90 af bd e1 44 9a 3e 66 1f 86 3e
       0.14484292 -0.085725576 0.30130675 0.2619583
000380 4a 5a 09 3e 2e 33 94 3d df f0 4d 3e f2 50 8d 3e
       0.13413349 0.07236324 0.20111416 0.2760082
000390 27 1b e7 3d 63 9e 00 3e 1a 47 34 3e 0c 27 18 3d
       0.11284476 0.1256042 0.17605248 0.037146613
0003a0 de 2c 44 3d 71 8a 03 3e 37 80 0d 3e 12 1c 9a 3e
       0.04789435 0.1284578 0.13818441 0.3009954
0003b0 09 a7 8f 3e a2 14 80 bc af 1c 50 3c 44 6b d6 bd
       0.28057125 -0.015634838 0.012702151 -0.10469678
0003c0 c9 f9 44 3d 45 4b 24 3d 14 e6 f5 bd 26 2f ec be
       0.048089776 0.040110845 -0.120067745 -0.4612972
0003d0 98 8c ec be 1c a2 a8 be 09 bc 67 be 52 aa 4f bd
       -0.46201015 -0.3293618 -0.22630323 -0.05069954
0003e0 ca 5a fa 3b d3 fa 8e bd 84 45 32 bd 5e 36 34 3e
       0.0076402174 -0.06981435 -0.043523327 0.17598864
0003f0 84 4d b2 be 17 d8 25 be 6c 9d b7 be 52 76 4d be
       -0.34824765 -0.16195713 -0.3586229 -0.20064667

encoder3.enc3norm2.weight f4 [16]
000000 fb db 78 3f 64 6f 41 3f 83 0b a9 3f 78 a7 80 3f
       0.97210664 0.75560594 1.3206638 1.0051107
000010 89 73 bb 3f 4d 3e 59 3f 4b d9 59 3f bb ec 8f 3f
       1.4644634 0.8486069 0.8509719 1.124412
000020 52 3f 08 3f 1a c5 93 3f 7d bf 84 3f f8 2e 91 3f
       0.5322162 1.1544526 1.0370938 1.1342459
000030 8b 44 87 3f cb 97 2c 3f 71 86 a3 3f 47 e4 aa 3f
       1.0567793 0.6741912 1.2775403 1.3350915

encoder3.enc3norm2.bias f4 [16]
000000 97 97 b9 be 3d 26 e8 be e5 2c 2a be d6 e1 64 3b
       -0.36248466 -0.45341673 -0.16618688 0.0034924648
000010 39 34 07 bc de bc 18 bf eb d7 03 bf 67 85 93 be
       -0.008252197 -0.5966319 -0.5150134 -0.28812715
000020 dd 29 1a bf b5 dc 44 3e 22 f6 e0 bc 57 ec a0 be
       -0.6022013 0.19224818 -0.027461115 -0.31430313
000030 f6 62 df be 53 a1 f9 bd 8a 2b 99 3d 63 c2 69 be
       -0.4363019 -0.12188973 0.074790075 -0.22828059

encoder3.enc3norm2.running_mean f4 [16]
000000 9f 02 79 c0 73 99 02 c0 7d 9b 6a bf 01 6d d7 c0
       -3.890785 -2.0406158 -0.91643506 -6.732056
000010 3c 23 84 c0 6b 01 8c be 45 90 0e 3f a2 81 bb bf
       -4.129301 -0.27344832 0.5568889 -1.4648936
000020 74 d1 aa bf 0b ec 83 bb e6 98 a1 c0 01 89 80 c0
       -1.334517 -0.0040259412 -5.0499144 -4.016724
000030 72 5a 7b c0 93 9e a9 c0 44 51 ce bf 85 02 b9 3e
       -3.9273953 -5.300607 -1.611855 0.36134735

encoder3.enc3norm2.running_var f4 [16]
000000 93 39 7f 41 ee ac 2a 41 86 bc 50 41 92 e2 96 41
       15.951556 10.667219 13.046026 18.86063
000010 47 54 85 41 9b c7 34 41 cf 7f 4a 40 03 b9 05 41
       16.666151 11.298732 3.1640508 8.357669
000020 94 7f 49 41 8b 37 89 41 04 76 07 41 e6 9b 10 41
       12.593647 17.15212 8.466312 9.038061
000030 fd 66 51 41 de d5 25 41 e1 e1 38 41 5d 1e 06 41
       13.087644 10.364714 11.555146 8.382413

encoder4.enc4conv1.weight f4 [32, 16, 3, 3]
000000 12 40 2d be fa 11 f0 3d 22 31 ff 3c e2 ad d1 be
       -0.16918972 0.11722179 0.031151358 -0.40952975
000010 82 dd 64 bc 39 75 1b 3e c2 01 fc bd d0 e8 c9 3d
       -0.013968827 0.15181436 -0.12305023 0.098588586
000020 ac 0a 90 3e cc 89 ab 3e 49 d0 01 3e 58 29 af 3d
       0.28133142 0.33503568 0.1267711 0.085528076
000030 24 4a 3e 3e d5 14 0d 3e 25 b0 62 3e 59 f0 cd 3d
       0.1858297 0.13777478 0.22137506 0.10055608
000040 5e 07 50 3e fa bc 47 3e c1 06 c6 3e 03 d6 a5 3d
       0.2031531 0.19505683 0.38677028 0.0809746
000050 20 59 94 be 29 1d cf 3e d9 e5 59 3e 5e e0 48 be
       -0.28974247 0.40451935 0.21279086 -0.1961684
000060 be 89 cd 3c ae 56 b4 3d 46 64 57 3d dd 6b 0f bd
       0.025090095 0.08805595 0.052585863 -0.035014976
000070 0a ec 6b 3c 44 4d 27 bd 35 40 6c be 0e 81 11 3b
       0.014399538 -0.04084517 -0.23071368 0.0022202167
000080 af 05 a2 3e cb 35 24 bd 78 f8 8d 3c 39 b8 a2 3e
       0.3164496 -0.040090363 0.017330393 0.31781176
000090 31 8c 2c 3e f2 7f 4b 3e cb 12 ad 3d fb 43 a3 be
       0.16850354 0.19873026 0.0845085 -0.31887802
0000a0 de 9d f3 be 2f b6 6d be 4a 16 8a be ef e4 64 be
       -0.4758138 -0.23214029 -0.2697013 -0.22352956
0000b0 64 f4 2a bd a9 da c1 bd 67 ea 89 3e be 61 0b 3f
       -0.041736975 -0.09465534 0.26936647 0.5444602
0000c0 c6 52 27 bd 80 79 04 3f 53 40 fa 3e da 1d ce 3e
       -0.040850423 0.51747894 0.488772 0.4025715
0000d0 c0 02 e7 3e b0 c6 c1 3e fc 0e 82 3d 72 94 b8 3e
       0.45119286 0.378469 0.06350514 0.36050755
0000e0 05 ca 04 3f 26 d1 51 be 37 ee 77 3e 14 ba a2 3e
       0.5187076 -0.2048994 0.24211966 0.3178259
0000f0 8a 82 0a bd 07 a8 c3 3e b2 99 b0 3e 33 cc 4a 3c
       -0.033815898 0.38214132 0.3449226 0.012377786
000100 bc 65 f9 be 24 41 2e bf 09 ec 3f be d0 89 2e bf
       -0.4871043 -0.68068147 -0.18742384 -0.68179035
000110 bc 08 ec be d2 ee b3 be f7 f1 19 bf f6 86 d7 be
       -0.46100414 -0.35143143 -0.60134834 -0.42095155
000120 4c 22 11 3d 06 36 07 3e dc 8c c7 3d fb e2 9e 3d
       0.0354331 0.13204202 0.09743664 0.07758137
000130 eb 6a c8 3d a7 4c 4a 3e 3e ab 88 3d 07 56 4e 3e
       0.09786018 0.19755803 0.06673287 0.20150004
000140 3e 1d 81 3e 97 1f 58 3d 6c 9a 4c 3e 12 67 fb 3d
       0.25217623 0.0527645 0.19980782 0.122755185
000150 5b db 58 be f6 53 3e 3e 39 d2 bb 3d 40 50 ac 3e
       -0.21177427 0.18586716 0.09170956 0.33654976
000160 41 d6 e7 3e c4 06 52 3e e9 5a 4a 3e 9b 66 bd 3c
       0.4528065 0.20510393 0.19761242 0.023120215
000170 61 09 72 3e a4 eb 2d be bb fb 02 be 61 da 2f 3d
       0.2363639 -0.16984421 -0.1279134 0.04293287
000180 b5 74 04 3f df 27 fa 3e cf 7e c0 3e 66 41 db be
       0.5174058 0.48858544 0.37596747 -0.42823333
000190 73 cb 3c bf d3 35 1a bf b9 77 87 be 5d 15 39 bf
       -0.7374794 -0.6023838 -0.2645853 -0.7229822
0001a0 b2 c2 da be a8 50 23 bd a0 6c 4f be 9a 17 91 bd
       -0.42726666 -0.03987184 -0.20256281 -0.0708458
0001b0 6d 4a 54 3e 12 90 a0 3d 65 25 7a 3e 68 e9 40 be
       0.20731516 0.07839979 0.24428327 -0.18839037
0001c0 b0 e3 47 be e3 99 c2 3d 5c f0 98 bd b0 29 e6 bd
       -0.1952045 0.09502008 -0.0746772 -0.1123842
0001d0 ce 13 2b 3d 1a 47 cb bd bc 7a 21 bd 85 a4 92 bd
       0.041766934 -0.09925671 -0.03942369 -0.07160286
0001e0 97 90 69 3b 2f 9d 31 3e e7 f3 c8 3d de ab 24 3d
       0.003563916 0.17345117 0.09812146 0.040202968
0001f0 c7 46 07 3e f5 c5 00 3e a5 48 b7 3e 5e 44 cf 3e
       0.13210593 0.12575515 0.3579761 0.40481848
000200 00 6f b3 3e 22 a7 16 be 5d 24 00 3d 4e d8 47 3e
       0.35045624 -0.14712194 0.03128468 0.19516107
000210 92 cc a7 bd 16 7f 1a 3d 02 83 b4 3c 66 fa 36 bf
       -0.081933156 0.037718855 0.022035126 -0.7147583
000220 b3 c9 30 bf 32 27 2a bf b5 4b 6d bf 3d c5 38 bf
       -0.6905777 -0.6646606 -0.92693645 -0.7217596
000230 9e 27 15 bf 5e 89 7e be fc 10 7e be 83 6d db be
       -0.58263576 -0.24857089 -0.24811167 -0.42856988
000240 ac b4 cb bc 33 6d 16 bc 47 78 70 bd d1 fc 18 3e
       -0.024866425 -0.009181309 -0.058708455 0.14940192
000250 28 8f c6 3d 9a e1 34 3d 7d d2 1f 3e 9e 76 ad bd
       0.09695274 0.044160463 0.15607639 -0.0846989
000260 ea 35 24 bd 71 3a 6c 3e 65 1e 95 3e 68 51 6c 3e
       -0.04009048 0.23069169 0.29124752 0.23077929
000270 6a 6d be 3e 29 e4 d4 3e de 5e ad 3e f7 99 ca 3e
       0.3719285 0.41580322 0.3386144 0.3957059
000280 b4 ec 15 3f bf 14 07 3f 97 ce f0 bd 3b 19 36 be
       0.58564305 0.5276603 -0.11758154 -0.17783062
000290 77 3f 91 bd 2e 21 10 bf 9f 97 cd be 6e bf 94 be
       -0.07092183 -0.5630063 -0.4015474 -0.290523
0002a0 63 31 b9 be b7 24 ac be 33 c5 a0 be 0d 17 b1 be
       -0.36170492 -0.3362176 -0.3140045 -0.345879
0002b0 58 94 9f be c9 c6 15 bf 9a 92 aa be a3 54 2a be
       -0.31167865 -0.5850645 -0.33314973 -0.16633849
0002c0 db b3 8f be a7 5c 08 3e 9d cb 2e 3e ac 8c 50 3e
       -0.28066906 0.13316594 0.1706986 0.20366162
0002d0 62 b7 b6 be 87 ca ce be e4 d8 35 bf f5 bd 09 bf
       -0.35686785 -0.4038889 -0.71034074 -0.53805476
0002e0 71 5c 07 bf d2 ad 23 bf 7d 73 ae be a8 d4 a1 be
       -0.5287543 -0.63937104 -0.34072486 -0.31607556
0002f0 1c 63 85 be 25 9a 8d 3d 45 89 7a 3e 09 a3 93 3e
       -0.26052177 0.06914166 0.24466427 0.28835323
000300 8a 59 5a 3e 5a e1 6d 3e 6c 5e 52 3e b1 6d 7b bc
       0.21323219 0.23230496 0.20543832 -0.015345977
000310 9c 46 f5 3d 56 ec f4 3d b7 d1 5c bc 78 88 91 bc
       0.11976358 0.1195914 -0.013477734 -0.017765269
000320 54 9d e3 bd 41 57 e2 bd d4 05 07 be 50 11 c4 bd
       -0.11113992 -0.110517986 -0.13185817 -0.095736146
000330 64 67 f3 bc 0b f1 0e be 86 97 83 be 8b 77 8f bd
       -0.029712386 -0.13959138 -0.2570154 -0.07005223
000340 e0 98 93 be 39 64 65 be f4 2f 1c bf 63 eb 13 bf
       -0.28827572 -0.22401513 -0.6101067 -0.57781047
000350 24 6a 01 bf 87 5c 24 bf ab 64 12 bf 4b f8 eb be
       -0.5055258 -0.64203686 -0.5718486 -0.4608787
000360 9b 96 a2 bd 3d 5d e1 bd b2 7f b1 3d c5 b7 16 3d
       -0.07938882 -0.11004112 0.08666934 0.03679635
000370 14 d9 ec bc cc eb d6 3d de a6 19 3e 63 ba 43 3e
       -0.028912105 0.104941934 0.15005061 0.1911407
000380 80 30 69 3e 02 b1 06 3e 2c ba a8 bc cd 74 d1 bd
       0.22772408 0.1315346 -0.020596586 -0.10227356
000390 db 7e b2 be d3 0e c4 be c3 6c dc be 21 fa 76 be
       -0.34862408 -0.3829256 -0.4305173 -0.24118854
0003a0 1d 32 ff be 0d 41 20 bf 2f 52 63 3e c7 12 cd 3d
       -0.4984292 -0.6259926 0.2219932 0.10013347
0003b0 56 b1 70 3d 31 21 24 be 92 b6 f5 be dc 85 80 be
       0.05876287 -0.16028287 -0.47990853 -0.25102127
0003c0 07 b9 65 3d 5b 0c 5b be e1 19 95 be a4 df fb 3e
       0.05608466 -0.21391432 -0.29121307 0.49194062
0003d0 cc 35 51 3e 1e 8a be 3b a9 7b bf 3b 19 20 2a be
       0.20430678 0.0058148047 0.005843599 -0.16613807
0003e0 bd aa 5b be 8e b3 96 bd 05 d4 28 be 58 6c d5 be
       -0.2145185 -0.07358466 -0.16487129 -0.41684222
0003f0 73 55 dd bb f5 93 38 be 08 9d 87 be d3 fa de bd
       -0.006754571 -0.18025191 -0.26486993 -0.10887685

encoder4.enc4norm1.weight f4 [32]
000000 45 a5 9f 3f d7 21 76 3f bc 46 4e 3f 12 d4 71 3f
       1.2472311 0.96145386 0.8057668 0.9446422
000010 2e 1e 8f 3f c2 c7 6c 3f db 52 92 3f 85 06 74 3f
       1.1181085 0.92492306 1.1431535 0.9532245
000020 61 d7 89 3f fb 07 95 3f af 77 6e 3f b9 8e 71 3f
       1.0768853 1.164306 0.9315137 0.943584
000030 e0 75 5b 3f 72 f0 6a 3f 92 d0 b6 3f ea 8f 69 3f
       0.8572674 0.9177314 1.4282401 0.9123522
000040 e9 b7 81 3f b0 0b a2 3f 25 cd 87 3f cd e5 9b 3f
       1.013425 1.2659817 1.060948 1.2179505
000050 21 3d b0 3f d0 78 50 3f 83 25 6d 3f 5e fd 83 3f
       1.3768655 0.81434345 0.92635363 1.0311697
000060 0f 94 46 3f 44 d4 90 3f dd c0 6b 3f 56 8a 93 3f
       0.7756967 1.1314778 0.9209116 1.1526592
000070 a1 67 57 3f a2 4e 8b 3f 58 f5 8c 3f b2 97 62 3f
       0.841425 1.0883372 1.1012373 0.8851272

encoder4.enc4norm1.bias f4 [32]
000000 5d 15 e9 3d b2 56 54 bd ea b8 3f be ca 25 84 be
       0.11381028 -0.05184049 -0.18722883 -0.2581008
000010 ae aa ea 3c e5 03 1b be 03 6c 0b bd f2 b6 00 bf
       0.02864584 -0.15138204 -0.034038555 -0.5027915
000020 72 d5 16 3b a6 c4 50 bb 1b 17 d1 be 3d 43 cb be
       0.0023015407 -0.0031855493 -0.4083794 -0.39699736
000030 d0 c2 86 be 51 21 a0 3e 42 3f d2 bd b2 b0 b4 be
       -0.26320505 0.31275418 -0.10265972 -0.35291058
000040 7c 63 4a be b7 eb e7 3d 6b ea 0d bd 22 b2 0b 3e
       -0.19764513 0.11324256 -0.034647387 0.13642171
000050 e0 52 09 be 32 2c 04 bf c1 38 03 bf 23 93 f6 bd
       -0.1341052 -0.51629937 -0.51258475 -0.12039783
000060 ce 57 b1 be 78 b3 66 be 23 36 0f bf ab a1 c6 be
       -0.34637302 -0.225294 -0.5594198 -0.38795218
000070 1c 06 92 be c0 94 76 bd 88 c0 8e be 16 b4 ff bd
       -0.28520286 -0.060200453 -0.27881265 -0.124855205

encoder4.enc4norm1.running_mean f4 [32]
000000 51 ab 35 c0 34 34 37 c1 06 e3 d3 c0 7c bd df c0
       -2.8385813 -11.450245 -6.621463 -6.9918804
000010 e1 10 a9 c0 35 25 98 c0 e5 35 91 40 f2 7a cb 3f
       -5.2833104 -4.754542 4.537829 1.5896895
000020 5f 6a 1e c1 f7 ae 00 41 ea ef c6 bf 36 45 16 c0
       -9.9009695 8.042716 -1.5541966 -2.3479743
000030 1e 81 05 c1 88 48 31 c1 a4 cd 1d be 04 f3 d5 c0
       -8.344023 -11.080208 -0.15410477 -6.685915
000040 c5 df ca c0 9a d8 3b 40 aa 72 16 c1 07 45 05 3f
       -6.3398156 2.9350953 -9.402994 0.5205845
000050 c5 38 00 c0 7b 33 0d 40 23 78 e5 bf fe 42 08 c1
       -2.003465 2.206267 -1.7927288 -8.5163555
000060 88 11 62 c0 cd 88 d4 be 33 f1 96 40 fc 96 2a c0
       -3.53232 -0.4151062 4.7169433 -2.6654654
000070 2b 00 f9 c0 04 e4 26 c1 1f 48 90 c0 83 8c d3 3f
       -7.7812705 -10.430668 -4.508804 1.6527256
